…
           return np.array(self.x[start:end, :, :]), np.array(self.y[start:end])\n\n    def __len__(self):\n        return math.ceil((self.end_idx - self.start_idx) / self.batch_size)\n\n    def __del__(self):\n        self.f.close()\n\n\nprint('Modelo ResNet y ECGSequence cargados dentro del notebook.')\n\n\nModel: \"functional_7\"\n\n\n\n┏━━━━━━━━━━━━━━━━━━━━━┳━━━━━━━━━━━━━━━━━━━┳━━━━━━━━━━━━┳━━━━━━━━━━━━━━━━━━━┓\n┃ Layer (type)        ┃ Output Shape      ┃    Param # ┃ Connected to      ┃\n┡━━━━━━━━━━━━━━━━━━━━━╇━━━━━━━━━━━━━━━━━━━╇━━━━━━━━━━━━╇━━━━━━━━━━━━━━━━━━━┩\n│ signal (InputLayer) │ (None, 4096, 15)  │          0 │ -                 │\n├─────────────────────┼───────────────────┼────────────┼───────────────────┤\n│ conv1d_78 (Conv1D)  │ (None, 4096, 64)  │     15,360 │ signal[0][0]      │\n├─────────────────────┼───────────────────┼────────────┼───────────────────┤\n│ batch_normalizatio… │ (None, 4096, 64)  │        256 │ conv1d_78[0][0]   │\n│ (BatchNormalizatio… │                   │            │                   │\n├─────────────────────┼───────────────────┼────────────┼───────────────────┤\n│ activation_54       │ (None, 4096, 64)  │          0 │ batch_normalizat… │\n│ (Activation)        │                   │            │                   │\n├─────────────────────┼───────────────────┼────────────┼───────────────────┤\n│ conv1d_80 (Conv1D)  │ (None, 4096, 128) │    131,072 │ activation_54[0]… │\n├─────────────────────┼───────────────────┼────────────┼───────────────────┤\n│ batch_normalizatio… │ (None, 4096, 128) │        512 │ conv1d_80[0][0]   │\n│ (BatchNormalizatio… │                   │            │                   │\n├─────────────────────┼───────────────────┼────────────┼───────────────────┤\n│ activation_55       │ (None, 4096, 128) │          0 │ batch_normalizat… │\n│ (Activation)        │                   │            │                   │\n├─────────────────────┼───────────────────┼────────────┼───────────────────┤\n│ dropout_48          │ (None, 4096, 128) │          0 │ activation_55[0]… │\n│ (Dropout)           │                   │            │                   │\n├─────────────────────┼───────────────────┼────────────┼───────────────────┤\n│ max_pooling1d_24    │ (None, 1024, 64)  │          0 │ activation_54[0]… │\n│ (MaxPooling1D)      │                   │            │                   │\n├─────────────────────┼───────────────────┼────────────┼───────────────────┤\n│ conv1d_81 (Conv1D)  │ (None, 1024, 128) │    262,144 │ dropout_48[0][0]  │\n├─────────────────────┼───────────────────┼────────────┼───────────────────┤\n│ conv1d_79 (Conv1D)  │ (None, 1024, 128) │      8,192 │ max_pooling1d_24… │\n├─────────────────────┼───────────────────┼────────────┼───────────────────┤\n│ add_24 (Add)        │ (None, 1024, 128) │          0 │ conv1d_81[0][0],  │\n│                     │                   │            │ conv1d_79[0][0]   │\n├─────────────────────┼───────────────────┼────────────┼───────────────────┤\n│ batch_normalizatio… │ (None, 1024, 128) │        512 │ add_24[0][0]      │\n│ (BatchNormalizatio… │                   │            │                   │\n├─────────────────────┼───────────────────┼────────────┼───────────────────┤\n│ activation_56       │ (None, 1024, 128) │          0 │ batch_normalizat… │\n│ (Activation)        │                   │            │                   │\n├─────────────────────┼───────────────────┼────────────┼───────────────────┤\n│ dropout_49          │ (None, 1024, 128) │          0 │ activation_56[0]… │\n│ (Dropout)           │                   │            │                   │\n├─────────────────────┼───────────────────┼────────────┼───────────────────┤\n│ conv1d_83 (Conv1D)  │ (None, 1024, 196) │    401,408 │ dropout_49[0][0]  │\n├─────────────────────┼───────────────────┼────────────┼───────────────────┤\n│ batch_normalizatio… │ (None, 1024, 196) │        784 │ conv1d_83[0][0]   │\n│ (BatchNormalizatio… │                   │            │                   │\n├─────────────────────┼───────────────────┼────────────┼───────────────────┤\n│ activation_57       │ (None, 1024, 196) │          0 │ batch_normalizat… │\n│ (Activation)        │                   │            │                   │\n├─────────────────────┼───────────────────┼────────────┼───────────────────┤\n│ dropout_50          │ (None, 1024, 196) │          0 │ activation_57[0]… │\n│ (Dropout)           │                   │            │                   │\n├─────────────────────┼───────────────────┼────────────┼───────────────────┤\n│ max_pooling1d_25    │ (None, 256, 128)  │          0 │ add_24[0][0]      │\n│ (MaxPooling1D)      │                   │            │                   │\n├─────────────────────┼───────────────────┼────────────┼───────────────────┤\n│ conv1d_84 (Conv1D)  │ (None, 256, 196)  │    614,656 │ dropout_50[0][0]  │\n├─────────────────────┼───────────────────┼────────────┼───────────────────┤\n│ conv1d_82 (Conv1D)  │ (None, 256, 196)  │     25,088 │ max_pooling1d_25… │\n├─────────────────────┼───────────────────┼────────────┼───────────────────┤\n│ add_25 (Add)        │ (None, 256, 196)  │          0 │ conv1d_84[0][0],  │\n│                     │                   │            │ conv1d_82[0][0]   │\n├─────────────────────┼───────────────────┼────────────┼───────────────────┤\n│ batch_normalizatio… │ (None, 256, 196)  │        784 │ add_25[0][0]      │\n│ (BatchNormalizatio… │                   │            │                   │\n├─────────────────────┼───────────────────┼────────────┼───────────────────┤\n│ activation_58       │ (None, 256, 196)  │          0 │ batch_normalizat… │\n│ (Activation)        │                   │            │                   │\n├─────────────────────┼───────────────────┼────────────┼───────────────────┤\n│ dropout_51          │ (None, 256, 196)  │          0 │ activation_58[0]… │\n│ (Dropout)           │                   │            │                   │\n├─────────────────────┼───────────────────┼────────────┼───────────────────┤\n│ conv1d_86 (Conv1D)  │ (None, 256, 256)  │    802,816 │ dropout_51[0][0]  │\n├─────────────────────┼───────────────────┼────────────┼───────────────────┤\n│ batch_normalizatio… │ (None, 256, 256)  │      1,024 │ conv1d_86[0][0]   │\n│ (BatchNormalizatio… │                   │            │                   │\n├─────────────────────┼───────────────────┼────────────┼───────────────────┤\n│ activation_59       │ (None, 256, 256)  │          0 │ batch_normalizat… │\n│ (Activation)        │                   │            │                   │\n├─────────────────────┼───────────────────┼────────────┼───────────────────┤\n│ dropout_52          │ (None, 256, 256)  │          0 │ activation_59[0]… │\n│ (Dropout)           │                   │            │                   │\n├─────────────────────┼───────────────────┼────────────┼───────────────────┤\n│ max_pooling1d_26    │ (None, 64, 196)   │          0 │ add_25[0][0]      │\n│ (MaxPooling1D)      │                   │            │                   │\n├─────────────────────┼───────────────────┼────────────┼───────────────────┤\n│ conv1d_87 (Conv1D)  │ (None, 64, 256)   │  1,048,576 │ dropout_52[0][0]  │\n├─────────────────────┼───────────────────┼────────────┼───────────────────┤\n│ conv1d_85 (Conv1D)  │ (None, 64, 256)   │     50,176 │ max_pooling1d_26… │\n├─────────────────────┼───────────────────┼────────────┼───────────────────┤\n│ add_26 (Add)        │ (None, 64, 256)   │          0 │ conv1d_87[0][0],  │\n│                     │                   │            │ conv1d_85[0][0]   │\n├─────────────────────┼───────────────────┼────────────┼───────────────────┤\n│ batch_normalizatio… │ (None, 64, 256)   │      1,024 │ add_26[0][0]      │\n│ (BatchNormalizatio… │                   │            │                   │\n├─────────────────────┼───────────────────┼────────────┼───────────────────┤\n│ activation_60       │ (None, 64, 256)   │          0 │ batch_normalizat… │\n│ (Activation)        │                   │            │                   │\n├─────────────────────┼───────────────────┼────────────┼───────────────────┤\n│ dropout_53          │ (None, 64, 256)   │          0 │ activation_60[0]… │\n│ (Dropout)           │                   │            │                   │\n├─────────────────────┼───────────────────┼────────────┼───────────────────┤\n│ conv1d_89 (Conv1D)  │ (None, 64, 320)   │  1,310,720 │ dropout_53[0][0]  │\n├─────────────────────┼───────────────────┼────────────┼───────────────────┤\n│ batch_normalizatio… │ (None, 64, 320)   │      1,280 │ conv1d_89[0][0]   │\n│ (BatchNormalizatio… │                   │            │                   │\n├─────────────────────┼───────────────────┼────────────┼───────────────────┤\n│ activation_61       │ (None, 64, 320)   │          0 │ batch_normalizat… │\n│ (Activation)        │                   │            │                   │\n├─────────────────────┼───────────────────┼────────────┼───────────────────┤\n│ dropout_54          │ (None, 64, 320)   │          0 │ activation_61[0]… │\n│ (Dropout)           │                   │            │                   │\n├─────────────────────┼───────────────────┼────────────┼───────────────────┤\n│ max_pooling1d_27    │ (None, 16, 256)   │          0 │ add_26[0][0]      │\n│ (MaxPooling1D)      │                   │            │                   │\n├─────────────────────┼───────────────────┼────────────┼───────────────────┤\n│ conv1d_90 (Conv1D)  │ (None, 16, 320)   │  1,638,400 │ dropout_54[0][0]  │\n├─────────────────────┼───────────────────┼────────────┼───────────────────┤\n│ conv1d_88 (Conv1D)  │ (None, 16, 320)   │     81,920 │ max_pooling1d_27… │\n├─────────────────────┼───────────────────┼────────────┼───────────────────┤\n│ add_27 (Add)        │ (None, 16, 320)   │          0 │ conv1d_90[0][0],  │\n│                     │                   │            │ conv1d_88[0][0]   │\n├─────────────────────┼───────────────────┼────────────┼───────────────────┤\n│ batch_normalizatio… │ (None, 16, 320)   │      1,280 │ add_27[0][0]      │\n│ (BatchNormalizatio… │                   │            │                   │\n├─────────────────────┼───────────────────┼────────────┼───────────────────┤\n│ activation_62       │ (None, 16, 320)   │          0 │ batch_normalizat… │\n│ (Activation)        │                   │            │                   │\n├─────────────────────┼───────────────────┼────────────┼───────────────────┤\n│ dropout_55          │ (None, 16, 320)   │          0 │ activation_62[0]… │\n│ (Dropout)           │                   │            │                   │\n├─────────────────────┼───────────────────┼────────────┼───────────────────┤\n│ global_average_poo… │ (None, 320)       │          0 │ dropout_55[0][0]  │\n│ (GlobalAveragePool… │                   │            │                   │\n├─────────────────────┼───────────────────┼────────────┼───────────────────┤\n│ dense_6 (Dense)     │ (None, 5)         │      1,605 │ global_average_p… │\n└─────────────────────┴───────────────────┴────────────┴───────────────────┘\n\n\n\n Total params: 6,399,589 (24.41 MB)\n\n\n\n Trainable params: 6,395,861 (24.40 MB)\n\n\n\n Non-trainable params: 3,728 (14.56 KB)\n\n\n\nModelo ResNet y ECGSequence cargados dentro del notebook.\n\n\n\n\n4.6.5 3.6 Entrenamiento o reutilización de modelos\nEsta celda define el entrenamiento y
…
xplicabilidad/fallos_efficient.csv\n\n\n\n\n5.6.1 Grad-CAM sobre clases relevantes\nEn primer lugar, identificamos la última capa de activación de nuestra red. Luego utilizaremos los pesos para calcular el mapa de calor para las muestras seleccionadas anteriormente.\n\n\nCódigo\nmodel.summary()\n\n\nModel: \"functional\"\n\n\n\n┏━━━━━━━━━━━━━━━━━━━━━━━━━━━━━━━━━┳━━━━━━━━━━━━━━━━━━━━━━━━┳━━━━━━━━━━━━━━━┓\n┃ Layer (type)                    ┃ Output Shape           ┃       Param # ┃\n┡━━━━━━━━━━━━━━━━━━━━━━━━━━━━━━━━━╇━━━━━━━━━━━━━━━━━━━━━━━━╇━━━━━━━━━━━━━━━┩\n│ input_layer_1 (InputLayer)      │ (None, 224, 224, 3)    │             0 │\n├─────────────────────────────────┼────────────────────────┼───────────────┤\n│ efficientnetb3 (Functional)     │ (None, 7, 7, 1536)     │    10,783,535 │\n├─────────────────────────────────┼────────────────────────┼───────────────┤\n│ global_average_pooling2d        │ (None, 1536)           │             0 │\n│ (GlobalAveragePooling2D)        │                        │               │\n├─────────────────────────────────┼────────────────────────┼───────────────┤\n│ dense (Dense)                   │ (None, 256)            │       393,472 │\n├─────────────────────────────────┼────────────────────────┼───────────────┤\n│ batch_normalization             │ (None, 256)            │         1,024 │\n│ (BatchNormalization)            │                        │               │\n├─────────────────────────────────┼────────────────────────┼───────────────┤\n│ dropout (Dropout)               │ (None, 256)            │             0 │\n├─────────────────────────────────┼────────────────────────┼───────────────┤\n│ dense_1 (Dense)                 │ (None, 7)              │         1,799 │\n└─────────────────────────────────┴────────────────────────┴───────────────┘\n\n\n\n Total params: 11,179,832 (42.65 MB)\n\n\n\n Trainable params: 3,949,953 (15.07 MB)\n\n\n\n Non-trainable params: 7,229,877 (27.58 MB)\n\n\n\n Optimizer params: 2 (12.00 B)\n\n\n\n\n\nCódigo\nbase = model.get_layer(\"efficientnetb3\")\n# Última capa convolucional dentro del submodelo\nfor layer in base.layers[-
…
ion='softmax', name='predictions'),\n    ], name='CNN_Supersencilla')\n    m.compile(\n        optimizer='adam',\n        loss='sparse_categorical_crossentropy',\n        metrics=['accuracy']\n    )\n    return m\n\nsupersimple_model = build_supersimple_cnn()\nsupersimple_model.summary()\n\n\nModel: \"CNN_Supersencilla\"\n\n\n\n┏━━━━━━━━━━━━━━━━━━━━━━━━━━━━━━━━━┳━━━━━━━━━━━━━━━━━━━━━━━━┳━━━━━━━━━━━━━━━┓\n┃ Layer (type)                    ┃ Output Shape           ┃       Param # ┃\n┡━━━━━━━━━━━━━━━━━━━━━━━━━━━━━━━━━╇━━━━━━━━━━━━━━━━━━━━━━━━╇━━━━━━━━━━━━━━━┩\n│ ss_conv1 (Conv2D)               │ (None, 64, 64, 16)     │           448 │\n├─────────────────────────────────┼────────────────────────┼───────────────┤\n│ ss_pool1 (MaxPooling2D)         │ (None, 16, 16, 16)     │             0 │\n├─────────────────────────────────┼────────────────────────┼───────────────┤\n│ flatten_1 (Flatten)             │ (None, 4096)           │             0 │\n├─────────────────────────────────┼────────────────────────┼───────────────┤\n│ dense_1 (Dense)                 │ (None, 64)             │       262,208 │\n├─────────────────────────────────┼────────────────────────┼───────────────┤\n│ predictions (Dense)             │ (None, 12)             │           780 │\n└─────────────────────────────────┴────────────────────────┴───────────────┘\n\n\n\n Total params: 263,436 (1.00 MB)\n\n\n\n Trainable params: 263,436 (1.00 MB)\n\n\n\n Non-trainable params: 0 (0.00 B)\n\n\n\n\n\nCódigo\ncb_ss = [\n    callbacks.EarlyStopping(monitor='val_accuracy', patience=8, restore_best_weights=True, verbose=1),\n    callbacks.ReduceLROnPlateau(monitor='val_loss', factor=0
…
rs.Dense(num_classes, activation='softmax', name='predictions'),\n    ], name='CNN_Simple')\n    m.compile(\n        optimizer='adam',\n        loss='sparse_categorical_crossentropy',\n        metrics=['accuracy']\n    )\n    return m\n\nsimple_model = build_simple_cnn()\nsimple_model.summary()\n\n\nModel: \"CNN_Simple\"\n\n\n\n┏━━━━━━━━━━━━━━━━━━━━━━━━━━━━━━━━━┳━━━━━━━━━━━━━━━━━━━━━━━━┳━━━━━━━━━━━━━━━┓\n┃ Layer (type)                    ┃ Output Shape           ┃       Param # ┃\n┡━━━━━━━━━━━━━━━━━━━━━━━━━━━━━━━━━╇━━━━━━━━━━━━━━━━━━━━━━━━╇━━━━━━━━━━━━━━━┩\n│ conv1_1 (Conv2D)                │ (None, 64, 64, 32)     │           896 │\n├─────────────────────────────────┼────────────────────────┼───────────────┤\n│ pool1 (MaxPooling2D)            │ (None, 32, 32, 32)     │             0 │\n├─────────────────────────────────┼────────────────────────┼───────────────┤\n│ conv2_1 (Conv2D)                │ (None, 32, 32, 64)     │        18,496 │\n├─────────────────────────────────┼────────────────────────┼───────────────┤\n│ pool2 (MaxPooling2D)            │ (None, 16, 16, 64)     │             0 │\n├─────────────────────────────────┼────────────────────────┼───────────────┤\n│ flatten (Flatten)               │ (None, 16384)          │             0 │\n├─────────────────────────────────┼────────────────────────┼───────────────┤\n│ dense (Dense)                   │ (None, 128)            │     2,097,280 │\n├─────────────────────────────────┼────────────────────────┼───────────────┤\n│ dropout (Dropout)               │ (None, 128)            │             0 │\n├─────────────────────────────────┼────────────────────────┼───────────────┤\n│ predictions (Dense)             │ (None, 12)             │         1,548 │\n└─────────────────────────────────┴────────────────────────┴───────────────┘\n\n\n\n Total params: 2,118,220 (8.08 MB)\n\n\n\n Trainable params: 2,118,220 (8.08 MB)\n\n\n\n Non-trainable params: 0 (0.00 B)\n\n\n\n\n\nCódigo\ncb = [\n    callbacks.EarlyStopping(monitor='val_accuracy', patience=10, restore_best_weights=True, verbose=1),\n    callbacks.ReduceLROnPlateau(monitor='val_loss', factor
…
s, outputs=outputs, name='CNN_Compleja')\n    model.compile(\n        optimizer=tf.keras.optimizers.Adam(learning_rate=1e-3),\n        loss='sparse_categorical_crossentropy',\n        metrics=['accuracy']\n    )\n    return model\n\ncomplex_model = build_complex_cnn()\ncomplex_model.summary()\n\n\nModel: \"CNN_Compleja\"\n\n\n\n┏━━━━━━━━━━━━━━━━━━━━━━━━━━━━━━━━━┳━━━━━━━━━━━━━━━━━━━━━━━━┳━━━━━━━━━━━━━━━┓\n┃ Layer (type)                    ┃ Output Shape           ┃       Param # ┃\n┡━━━━━━━━━━━━━━━━━━━━━━━━━━━━━━━━━╇━━━━━━━━━━━━━━━━━━━━━━━━╇━━━━━━━━━━━━━━━┩\n│ input_layer_1 (InputLayer)      │ (None, 64, 64, 3)      │             0 │\n├─────────────────────────────────┼────────────────────────┼───────────────┤\n│ data_augmentation (Sequential)  │ (None, 64, 64, 3)      │             0 │\n├─────────────────────────────────┼────────────────────────┼───────────────┤\n│ conv1_1 (Conv2D)                │ (None, 64, 64, 32)     │           896 │\n├─────────────────────────────────┼────────────────────────┼───────────────┤\n│ batch_normalization             │ (None, 64, 64, 32)     │           128 │\n│ (BatchNormalization)            │                        │               │\n├─────────────────────────────────┼────────────────────────┼───────────────┤\n│ conv1_2 (Conv2D)                │ (None, 64, 64, 32)     │         9,248 │\n├─────────────────────────────────┼────────────────────────┼───────────────┤\n│ batch_normalization_1           │ (None, 64, 64, 32)     │           128 │\n│ (BatchNormalization)            │                        │               │\n├─────────────────────────────────┼────────────────────────┼───────────────┤\n│ pool1 (MaxPooling2D)            │ (None, 32, 32, 32)     │             0 │\n├─────────────────────────────────┼────────────────────────┼───────────────┤\n│ dropout_1 (Dropout)             │ (None, 32, 32, 32)     │             0 │\n├─────────────────────────────────┼────────────────────────┼───────────────┤\n│ conv2_1 (Conv2D)                │ (None, 32, 32, 64)     │        18,496 │\n├─────────────────────────────────┼────────────────────────┼───────────────┤\n│ batch_normalization_2           │ (None, 32, 32, 64)     │           256 │\n│ (BatchNormalization)            │                        │               │\n├─────────────────────────────────┼────────────────────────┼───────────────┤\n│ conv2_2 (Conv2D)                │ (None, 32, 32, 64)     │        36,928 │\n├─────────────────────────────────┼────────────────────────┼───────────────┤\n│ batch_normalization_3           │ (None, 32, 32, 64)     │           256 │\n│ (BatchNormalization)            │                        │               │\n├─────────────────────────────────┼────────────────────────┼───────────────┤\n│ pool2 (MaxPooling2D)            │ (None, 16, 16, 64)     │             0 │\n├─────────────────────────────────┼────────────────────────┼───────────────┤\n│ dropout_2 (Dropout)             │ (None, 16, 16, 64)     │             0 │\n├─────────────────────────────────┼────────────────────────┼───────────────┤\n│ conv3_1 (Conv2D)                │ (None, 16, 16, 128)    │        73,856 │\n├─────────────────────────────────┼────────────────────────┼───────────────┤\n│ batch_normalization_4           │ (None, 16, 16, 128)    │           512 │\n│ (BatchNormalization)            │                        │               │\n├─────────────────────────────────┼────────────────────────┼───────────────┤\n│ conv3_2 (Conv2D)                │ (None, 16, 16, 128)    │       147,584 │\n├─────────────────────────────────┼────────────────────────┼───────────────┤\n│ batch_normalization_5           │ (None, 16, 16, 128)    │           512 │\n│ (BatchNormalization)            │                        │               │\n├─────────────────────────────────┼────────────────────────┼───────────────┤\n│ pool3 (MaxPooling2D)            │ (None, 8, 8, 128)      │             0 │\n├─────────────────────────────────┼────────────────────────┼───────────────┤\n│ dropout_3 (Dropout)             │ (None, 8, 8, 128)      │             0 │\n├─────────────────────────────────┼────────────────────────┼───────────────┤\n│ global_avg_pool                 │ (None, 128)            │             0 │\n│ (GlobalAveragePooling2D)        │                        │               │\n├─────────────────────────────────┼────────────────────────┼───────────────┤\n│ dense_256 (Dense)               │ (None, 256)            │        33,024 │\n├─────────────────────────────────┼────────────────────────┼───────────────┤\n│ dropout_4 (Dropout)             │ (None, 256)            │             0 │\n├─────────────────────────────────┼────────────────────────┼───────────────┤\n│ predictions (Dense)             │ (None, 12)             │         3,084 │\n└─────────────────────────────────┴────────────────────────┴───────────────┘\n\n\n\n Total params: 324,908 (1.24 MB)\n\n\n\n Trainable params: 324,012 (1.24 MB)\n\n\n\n Non-trainable params: 896 (3.50 KB)\n\n\n\n\n\nCódigo\ncb_c = [\n    callbacks.EarlyStopping(monitor='val_accuracy', patience=12, restore_best_weights=True, verbose=1),\n    callbacks.ReduceLROnPlateau(monitor='val_loss', facto
…
